_________________________________________________________________
Layer (type)                 Output Shape              Param #   
=================================================================
time_distributed_1 (TimeDist (None, 7, 40, 40, 32)     4736      
_________________________________________________________________
time_distributed_2 (TimeDist (None, 7, 38, 38, 32)     9248      
_________________________________________________________________
time_distributed_3 (TimeDist (None, 7, 19, 19, 32)     0         
_________________________________________________________________
time_distributed_4 (TimeDist (None, 7, 19, 19, 64)     18496     
_________________________________________________________________
time_distributed_5 (TimeDist (None, 7, 19, 19, 64)     36928     
_________________________________________________________________
time_distributed_6 (TimeDist (None, 7, 9, 9, 64)       0         
_________________________________________________________________
time_distributed_7 (TimeDist (None, 7, 9, 9, 128)      73856     
_________________________________________________________________
time_distributed_8 (TimeDist (None, 7, 9, 9, 128)      147584    
_________________________________________________________________
time_distributed_9 (TimeDist (None, 7, 4, 4, 128)      0         
_________________________________________________________________
time_distributed_10 (TimeDis (None, 7, 4, 4, 256)      295168    
_________________________________________________________________
time_distributed_11 (TimeDis (None, 7, 4, 4, 256)      590080    
_________________________________________________________________
time_distributed_12 (TimeDis (None, 7, 2, 2, 256)      0         
_________________________________________________________________
time_distributed_13 (TimeDis (None, 7, 2, 2, 512)      1180160   
_________________________________________________________________
time_distributed_14 (TimeDis (None, 7, 2, 2, 512)      2359808   
_________________________________________________________________
time_distributed_15 (TimeDis (None, 7, 1, 1, 512)      0         
_________________________________________________________________
time_distributed_16 (TimeDis (None, 7, 512)            0         
_________________________________________________________________
dropout_1 (Dropout)          (None, 7, 512)            0         
_________________________________________________________________
lstm_1 (LSTM)                (None, 256)               787456    
_________________________________________________________________
dense_1 (Dense)              (None, 4)                 1028      
=================================================================
Total params: 5,504,548
Trainable params: 5,504,548
Non-trainable params: 0
_________________________________________________________________
None
WARNING:tensorflow:Variable *= will be deprecated. Use variable.assign_mul if you want assignment to the variable value or 'x = x * y' if you want a new python Tensor object.
2018-05-22 00:56:02.243782: I tensorflow/core/platform/cpu_feature_guard.cc:140] Your CPU supports instructions that this TensorFlow binary was not compiled to use: AVX2 FMA
…
